…
snapshot: 0
snapshot_prefix: "caffenet_fast_rcnn"
average_loss: 100
I1204 09:14:23.252511 10315 solver.cpp:81] Creating training net from train_net file: models/CaffeNet/train.prototxt
I1204 09:14:23.253006 10315 net.cpp:49] Initializing net from parameters: 
name: "CaffeNet"
state {
  phase: TRAIN
}
layer {
  name: "data"
  type: "Python"
  top: "data"
  top: "rois"
  top: "labels"
  top: "bbox_targets"
  top: "bbox_loss_weights"
  python_param {
    module: "roi_data_layer.layer"
    layer: "RoIDataLayer"
    param_str: "\'num_classes\': 21"
  }
}
layer {
  name: "conv1"
  type: "Convolution"
  bottom: "data"
  top: "conv1"
  param {
    lr_mult: 0
    decay_mult: 0
  }
  param {
    lr_mult: 0
    decay_mult: 0
  }
  convolution_param {
    num_output: 96
    pad: 5
    kernel_size: 11
    stride: 4
  }
}
layer {
  name: "relu1"
  type: "ReLU"
  bottom: "conv1"
  top: "conv1"
}
layer {
  name: "pool1"
  type: "Pooling"
  bottom: "conv1"
  top: "pool1"
  pooling_param {
    pool: MAX
    kernel_size: 3
    stride: 2
    pad: 1
  }
}
layer {
  name: "norm1"
  type: "LRN"
  bottom: "pool1"
  top: "norm1"
  lrn_param {
    local_size: 5
    alpha: 0.0001
    beta: 0.75
  }
}
layer {
  name: "conv2"
  type: "Convolution"
  bottom: "norm1"
  top: "conv2"
  param {
    lr_mult: 1
    decay_mult: 1
  }
  param {
    lr_mult: 2
    decay_mult: 0
  }
  convolution_param {
    num_output: 256
    pad: 2
    kernel_size: 5
    group: 2
  }
}
layer {
  name: "relu2"
  type: "ReLU"
  bottom: "conv2"
  top: "conv2"
}
layer {
  name: "pool2"
  type: "Pooling"
  bottom: "conv2"
  top: "pool2"
  pooling_param {
    pool: MAX
    kernel_size: 3
    stride: 2
    pad: 1
  }
}
layer {
  name: "norm2"
  type: "LRN"
  bottom: "pool2"
  top: "norm2"
  lrn_param {
    local_size: 5
    alpha: 0.0001
    beta: 0.75
  }
}
layer {
  name: "conv3"
  type: "Convolution"
  bottom: "norm2"
  top: "conv3"
  param {
    lr_mult: 1
    decay_mult: 1
  }
  param {
    lr_mult: 2
    decay_mult: 0
  }
  convolution_param {
    num_output: 384
    pad: 1
    kernel_size: 3
  }
}
layer {
  name: "relu3"
  type: "ReLU"
  bottom: "conv3"
  top: "conv3"
}
layer {
  name: "conv4"
  type: "Convolution"
  bottom: "conv3"
  top: "conv4"
  param {
    lr_mult: 1
    decay_mult: 1
  }
  param {
    lr_mult: 2
    decay_mult: 0
  }
  convolution_param {
    num_output: 384
    pad: 1
    kernel_size: 3
    group: 2
  }
}
layer {
  name: "relu4"
  type: "ReLU"
  bottom: "conv4"
  top: "conv4"
}
layer {
  name: "conv5"
  type: "Convolution"
  bottom: "conv4"
  top: "conv5"
  param {
    lr_mult: 1
    decay_mult: 1
  }
  param {
    lr_mult: 2
    decay_mult: 0
  }
  convolution_param {
    num_output: 256
    pad: 1
    kernel_size: 3
    group: 2
  }
}
layer {
  name: "relu5"
  type: "ReLU"
  bottom: "conv5"
  top: "conv5"
}
layer {
  name: "roi_pool5"
  type: "ROIPooling"
  bottom: "conv5"
  bottom: "rois"
  top: "pool5"
  roi_pooling_param {
    pooled_h: 6
    pooled_w: 6
    spatial_scale: 0.0625
  }
}
layer {
  name: "fc6"
  type: "InnerProduct"
  bottom: "pool5"
  top: "fc6"
  param {
    lr_mult: 1
    decay_mult: 1
  }
  param {
    lr_mult: 2
    decay_mult: 0
  }
  inner_product_param {
    num_output: 4096
  }
}
layer {
  name: "relu6"
  type: "ReLU"
  bottom: "fc6"
  top: "fc6"
}
layer {
  name: "drop6"
  type: "Dropout"
  bottom: "fc6"
  top: "fc6"
  dropout_param {
    dropout_ratio: 0.5
  }
}
layer {
  name: "fc7"
  type: "InnerProduct"
  bottom: "fc6"
  top: "fc7"
  param {
    lr_mult: 1
    decay_mult: 1
  }
  param {
    lr_mult: 2
    decay_mult: 0
  }
  inner_product_param {
    num_output: 4096
  }
}
layer {
  name: "relu7"
  type: "ReLU"
  bottom: "fc7"
  top: "fc7"
}
layer {
  name: "drop7"
  type: "Dropout"
  bottom: "fc7"
  top: "fc7"
  dropout_param {
    dropout_ratio: 0.5
  }
}
layer {
  name: "cls_score"
  type: "InnerProduct"
  bottom: "fc7"
  top: "cls_score"
  param {
    lr_mult: 1
    decay_mult: 1
  }
  param {
    lr_mult: 2
    decay_mult: 0
  }
  inner_product_param {
    num_output: 21
    weight_filler {
      type: "gaussian"
      std: 0.01
    }
    bias_filler {
      type: "constant"
      value: 0
    }
  }
}
layer {
  name: "bbox_pred"
  type: "InnerProduct"
  bottom: "fc7"
  top: "bbox_pred"
  param {
    lr_mult: 1
    decay_mult: 1
  }
  param {
    lr_mult: 2
    decay_mult: 0
  }
  inner_product_param {
    num_output: 84
    weight_filler {
      type: "gaussian"
      std: 0.001
    }
    bias_filler {
      type: "constant"
      value: 0
    }
  }
}
layer {
  name: "loss_cls"
  type: "SoftmaxWithLoss"
  bottom: "cls_score"
  bottom: "labels"
  top: "loss_cls"
  loss_weight: 1
}
layer {
  name: "loss_bbox"
  type: "SmoothL1Loss"
  bottom: "bbox_pred"
  bottom: "bbox_targets"
  bottom: "bbox_loss_weights"
  top: "loss_bbox"
  loss_weight: 1
}
I1204 09:14:23.253115 10315 layer_factory.hpp:77] Creating layer data
I1204 09:14:23.280900 10315 net.cpp:106] Creating Layer data
I1204 09:14:23.280936 10315 net.cpp:411] data -> data
I1204 09:14:23.280947 10315 net.cpp:411] data -> rois
I1204 09:14:23.280956 10315 net.cpp:411] data -> labels
I1204 09:14:23.280963 10315 net.cpp:411] data -> bbox_targets
I1204 09:14:23.280971 10315 net.cpp:411] data -> bbox_loss_weights
I1204 09:14:23.293779 10315 net.cpp:150] Setting up data
I1204 09:14:23.293828 10315 net.cpp:157] Top shape: 1 3 100 100 (30000)
I1204 09:14:23.293835 10315 net.cpp:157] Top shape: 1 5 (5)
I1204 09:14:23.293841 10315 net.cpp:157] Top shape: 1 (1)
I1204 09:14:23.293846 10315 net.cpp:157] Top shape: 1 84 (84)
I1204 09:14:23.293853 10315 net.cpp:157] Top shape: 1 84 (84)
I1204 09:14:23.293859 10315 net.cpp:165] Memory required for data: 120696
I1204 09:14:23.293866 10315 layer_factory.hpp:77] Creating layer conv1
I1204 09:14:23.293886 10315 net.cpp:106] Creating Layer conv1
I1204 09:14:23.293893 10315 net.cpp:454] conv1 <- data
I1204 09:14:23.293902 10315 net.cpp:411] conv1 -> conv1
I1204 09:14:23.295625 10315 net.cpp:150] Setting up conv1
I1204 09:14:23.295670 10315 net.cpp:157] Top shape: 1 96 25 25 (60000)
I1204 09:14:23.295675 10315 net.cpp:165] Memory required for data: 360696
I1204 09:14:23.295691 10315 layer_factory.hpp:77] Creating layer relu1
I1204 09:14:23.295706 10315 net.cpp:106] Creating Layer relu1
I1204 09:14:23.295714 10315 net.cpp:454] relu1 <- conv1
I1204 09:14:23.295722 10315 net.cpp:397] relu1 -> conv1 (in-place)
I1204 09:14:23.295732 10315 net.cpp:150] Setting up relu1
I1204 09:14:23.295737 10315 net.cpp:157] Top shape: 1 96 25 25 (60000)
I1204 09:14:23.295742 10315 net.cpp:165] Memory required for data: 600696
I1204 09:14:23.295747 10315 layer_factory.hpp:77] Creating layer pool1
I1204 09:14:23.295754 10315 net.cpp:106] Creating Layer pool1
I1204 09:14:23.295758 10315 net.cpp:454] pool1 <- conv1
I1204 09:14:23.295765 10315 net.cpp:411] pool1 -> pool1
I1204 09:14:23.295815 10315 net.cpp:150] Setting up pool1
I1204 09:14:23.295825 10315 net.cpp:157] Top shape: 1 96 13 13 (16224)
I1204 09:14:23.295830 10315 net.cpp:165] Memory required for data: 665592
I1204 09:14:23.295833 10315 layer_factory.hpp:77] Creating layer norm1
I1204 09:14:23.295843 10315 net.cpp:106] Creating Layer norm1
I1204 09:14:23.295847 10315 net.cpp:454] norm1 <- pool1
I1204 09:14:23.295855 10315 net.cpp:411] norm1 -> norm1
I1204 09:14:23.295884 10315 net.cpp:150] Setting up norm1
I1204 09:14:23.295892 10315 net.cpp:157] Top shape: 1 96 13 13 (16224)
I1204 09:14:23.295895 10315 net.cpp:165] Memory required for data: 730488
I1204 09:14:23.295900 10315 layer_factory.hpp:77] Creating layer conv2
I1204 09:14:23.295910 10315 net.cpp:106] Creating Layer conv2
I1204 09:14:23.295914 10315 net.cpp:454] conv2 <- norm1
I1204 09:14:23.295922 10315 net.cpp:411] conv2 -> conv2
I1204 09:14:23.297073 10315 net.cpp:150] Setting up conv2
I1204 09:14:23.297111 10315 net.cpp:157] Top shape: 1 256 13 13 (43264)
I1204 09:14:23.297124 10315 net.cpp:165] Memory required for data: 903544
I1204 09:14:23.297138 10315 layer_factory.hpp:77] Creating layer relu2
I1204 09:14:23.297152 10315 net.cpp:106] Creating Layer relu2
I1204 09:14:23.297163 10315 net.cpp:454] relu2 <- conv2
I1204 09:14:23.297169 10315 net.cpp:397] relu2 -> conv2 (in-place)
I1204 09:14:23.297180 10315 net.cpp:150] Setting up relu2
I1204 09:14:23.297185 10315 net.cpp:157] Top shape: 1 256 13 13 (43264)
I1204 09:14:23.297190 10315 net.cpp:165] Memory required for data: 1076600
I1204 09:14:23.297194 10315 layer_factory.hpp:77] Creating layer pool2
I1204 09:14:23.297201 10315 net.cpp:106] Creating Layer pool2
I1204 09:14:23.297206 10315 net.cpp:454] pool2 <- conv2
I1204 09:14:23.297212 10315 net.cpp:411] pool2 -> pool2
I1204 09:14:23.297248 10315 net.cpp:150] Setting up pool2
I1204 09:14:23.297256 10315 net.cpp:157] Top shape: 1 256 7 7 (12544)
I1204 09:14:23.297261 10315 net.cpp:165] Memory required for data: 1126776
I1204 09:14:23.297266 10315 layer_factory.hpp:77] Creating layer norm2
I1204 09:14:23.297276 10315 net.cpp:106] Creating Layer norm2
I1204 09:14:23.297279 10315 net.cpp:454] norm2 <- pool2
I1204 09:14:23.297286 10315 net.cpp:411] norm2 -> norm2
I1204 09:14:23.297315 10315 net.cpp:150] Setting up norm2
I1204 09:14:23.297322 10315 net.cpp:157] Top shape: 1 256 7 7 (12544)
I1204 09:14:23.297327 10315 net.cpp:165] Memory required for data: 1176952
I1204 09:14:23.297332 10315 layer_factory.hpp:77] Creating layer conv3
I1204 09:14:23.297340 10315 net.cpp:106] Creating Layer conv3
I1204 09:14:23.297344 10315 net.cpp:454] conv3 <- norm2
I1204 09:14:23.297350 10315 net.cpp:411] conv3 -> conv3
I1204 09:14:23.299352 10315 net.cpp:150] Setting up conv3
I1204 09:14:23.299398 10315 net.cpp:157] Top shape: 1 384 7 7 (18816)
I1204 09:14:23.299407 10315 net.cpp:165] Memory required for data: 1252216
I1204 09:14:23.299425 10315 layer_factory.hpp:77] Creating layer relu3
I1204 09:14:23.299441 10315 net.cpp:106] Creating Layer relu3
I1204 09:14:23.299450 10315 net.cpp:454] relu3 <- conv3
I1204 09:14:23.299459 10315 net.cpp:397] relu3 -> conv3 (in-place)
I1204 09:14:23.299473 10315 net.cpp:150] Setting up relu3
I1204 09:14:23.299479 10315 net.cpp:157] Top shape: 1 384 7 7 (18816)
I1204 09:14:23.299484 10315 net.cpp:165] Memory required for data: 1327480
I1204 09:14:23.299489 10315 layer_factory.hpp:77] Creating layer conv4
I1204 09:14:23.299500 10315 net.cpp:106] Creating Layer conv4
I1204 09:14:23.299506 10315 net.cpp:454] conv4 <- conv3
I1204 09:14:23.299513 10315 net.cpp:411] conv4 -> conv4
I1204 09:14:23.301175 10315 net.cpp:150] Setting up conv4
I1204 09:14:23.301214 10315 net.cpp:157] Top shape: 1 384 7 7 (18816)
I1204 09:14:23.301221 10315 net.cpp:165] Memory required for data: 1402744
I1204 09:14:23.301232 10315 layer_factory.hpp:77] Creating layer relu4
I1204 09:14:23.301249 10315 net.cpp:106] Creating Layer relu4
I1204 09:14:23.301259 10315 net.cpp:454] relu4 <- conv4
I1204 09:14:23.301267 10315 net.cpp:397] relu4 -> conv4 (in-place)
I1204 09:14:23.301277 10315 net.cpp:150] Setting up relu4
I1204 09:14:23.301285 10315 net.cpp:157] Top shape: 1 384 7 7 (18816)
I1204 09:14:23.301290 10315 net.cpp:165] Memory required for data: 1478008
I1204 09:14:23.301295 10315 layer_factory.hpp:77] Creating layer conv5
I1204 09:14:23.301306 10315 net.cpp:106] Creating Layer conv5
I1204 09:14:23.301312 10315 net.cpp:454] conv5 <- conv4
I1204 09:14:23.301321 10315 net.cpp:411] conv5 -> conv5
I1204 09:14:23.302639 10315 net.cpp:150] Setting up conv5
I1204 09:14:23.302680 10315 net.cpp:157] Top shape: 1 256 7 7 (12544)
I1204 09:14:23.302688 10315 net.cpp:165] Memory required for data: 1528184
I1204 09:14:23.302706 10315 layer_factory.hpp:77] Creating layer relu5
I1204 09:14:23.302716 10315 net.cpp:106] Creating Layer relu5
I1204 09:14:23.302723 10315 net.cpp:454] relu5 <- conv5
I1204 09:14:23.302732 10315 net.cpp:397] relu5 -> conv5 (in-place)
I1204 09:14:23.302742 10315 net.cpp:150] Setting up relu5
I1204 09:14:23.302748 10315 net.cpp:157] Top shape: 1 256 7 7 (12544)
I1204 09:14:23.302753 10315 net.cpp:165] Memory required for data: 1578360
I1204 09:14:23.302772 10315 layer_factory.hpp:77] Creating layer roi_pool5
I1204 09:14:23.302780 10315 net.cpp:106] Creating Layer roi_pool5
I1204 09:14:23.302786 10315 net.cpp:454] roi_pool5 <- conv5
I1204 09:14:23.302793 10315 net.cpp:454] roi_pool5 <- rois
I1204 09:14:23.302801 10315 net.cpp:411] roi_pool5 -> pool5
I1204 09:14:23.302810 10315 roi_pooling_layer.cpp:30] Spatial scale: 0.0625
I1204 09:14:23.302855 10315 net.cpp:150] Setting up roi_pool5
I1204 09:14:23.302865 10315 net.cpp:157] Top shape: 1 256 6 6 (9216)
I1204 09:14:23.302871 10315 net.cpp:165] Memory required for data: 1615224
I1204 09:14:23.302876 10315 layer_factory.hpp:77] Creating layer fc6
I1204 09:14:23.302894 10315 net.cpp:106] Creating Layer fc6
I1204 09:14:23.302901 10315 net.cpp:454] fc6 <- pool5
I1204 09:14:23.302906 10315 net.cpp:411] fc6 -> fc6
I1204 09:14:23.382483 10315 net.cpp:150] Setting up fc6
I1204 09:14:23.382529 10315 net.cpp:157] Top shape: 1 4096 (4096)
I1204 09:14:23.382539 10315 net.cpp:165] Memory required for data: 1631608
I1204 09:14:23.382551 10315 layer_factory.hpp:77] Creating layer relu6
I1204 09:14:23.382566 10315 net.cpp:106] Creating Layer relu6
I1204 09:14:23.382575 10315 net.cpp:454] relu6 <- fc6
I1204 09:14:23.382585 10315 net.cpp:397] relu6 -> fc6 (in-place)
I1204 09:14:23.382597 10315 net.cpp:150] Setting up relu6
I1204 09:14:23.382606 10315 net.cpp:157] Top shape: 1 4096 (4096)
I1204 09:14:23.382611 10315 net.cpp:165] Memory required for data: 1647992
I1204 09:14:23.382616 10315 layer_factory.hpp:77] Creating layer drop6
I1204 09:14:23.382627 10315 net.cpp:106] Creating Layer drop6
I1204 09:14:23.382632 10315 net.cpp:454] drop6 <- fc6
I1204 09:14:23.382640 10315 net.cpp:397] drop6 -> fc6 (in-place)
I1204 09:14:23.382683 10315 net.cpp:150] Setting up drop6
I1204 09:14:23.382695 10315 net.cpp:157] Top shape: 1 4096 (4096)
I1204 09:14:23.382700 10315 net.cpp:165] Memory required for data: 1664376
I1204 09:14:23.382706 10315 layer_factory.hpp:77] Creating layer fc7
I1204 09:14:23.382716 10315 net.cpp:106] Creating Layer fc7
I1204 09:14:23.382722 10315 net.cpp:454] fc7 <- fc6
I1204 09:14:23.382731 10315 net.cpp:411] fc7 -> fc7
I1204 09:14:23.418836 10315 net.cpp:150] Setting up fc7
I1204 09:14:23.418896 10315 net.cpp:157] Top shape: 1 4096 (4096)
I1204 09:14:23.418910 10315 net.cpp:165] Memory required for data: 1680760
I1204 09:14:23.418931 10315 layer_factory.hpp:77] Creating layer relu7
I1204 09:14:23.418951 10315 net.cpp:106] Creating Layer relu7
I1204 09:14:23.418967 10315 net.cpp:454] relu7 <- fc7
I1204 09:14:23.418980 10315 net.cpp:397] relu7 -> fc7 (in-place)
I1204 09:14:23.418995 10315 net.cpp:150] Setting up relu7
I1204 09:14:23.419008 10315 net.cpp:157] Top shape: 1 4096 (4096)
I1204 09:14:23.419016 10315 net.cpp:165] Memory required for data: 1697144
I1204 09:14:23.419024 10315 layer_factory.hpp:77] Creating layer drop7
I1204 09:14:23.419035 10315 net.cpp:106] Creating Layer drop7
I1204 09:14:23.419044 10315 net.cpp:454] drop7 <- fc7
I1204 09:14:23.419054 10315 net.cpp:397] drop7 -> fc7 (in-place)
I1204 09:14:23.419097 10315 net.cpp:150] Setting up drop7
I1204 09:14:23.419111 10315 net.cpp:157] Top shape: 1 4096 (4096)
I1204 09:14:23.419117 10315 net.cpp:165] Memory required for data: 1713528
I1204 09:14:23.419126 10315 layer_factory.hpp:77] Creating layer fc7_drop7_0_split
I1204 09:14:23.419136 10315 net.cpp:106] Creating Layer fc7_drop7_0_split
I1204 09:14:23.419143 10315 net.cpp:454] fc7_drop7_0_split <- fc7
I1204 09:14:23.419154 10315 net.cpp:411] fc7_drop7_0_split -> fc7_drop7_0_split_0
I1204 09:14:23.419167 10315 net.cpp:411] fc7_drop7_0_split -> fc7_drop7_0_split_1
I1204 09:14:23.419219 10315 net.cpp:150] Setting up fc7_drop7_0_split
I1204 09:14:23.419230 10315 net.cpp:157] Top shape: 1 4096 (4096)
I1204 09:14:23.419239 10315 net.cpp:157] Top shape: 1 4096 (4096)
I1204 09:14:23.419246 10315 net.cpp:165] Memory required for data: 1746296
I1204 09:14:23.419253 10315 layer_factory.hpp:77] Creating layer cls_score
I1204 09:14:23.419266 10315 net.cpp:106] Creating Layer cls_score
I1204 09:14:23.419286 10315 net.cpp:454] cls_score <- fc7_drop7_0_split_0
I1204 09:14:23.419299 10315 net.cpp:411] cls_score -> cls_score
I1204 09:14:23.421617 10315 net.cpp:150] Setting up cls_score
I1204 09:14:23.421638 10315 net.cpp:157] Top shape: 1 21 (21)
I1204 09:14:23.421646 10315 net.cpp:165] Memory required for data: 1746380
I1204 09:14:23.421660 10315 layer_factory.hpp:77] Creating layer bbox_pred
I1204 09:14:23.421674 10315 net.cpp:106] Creating Layer bbox_pred
I1204 09:14:23.421684 10315 net.cpp:454] bbox_pred <- fc7_drop7_0_split_1
I1204 09:14:23.421695 10315 net.cpp:411] bbox_pred -> bbox_pred
I1204 09:14:23.431607 10315 net.cpp:150] Setting up bbox_pred
I1204 09:14:23.431654 10315 net.cpp:157] Top shape: 1 84 (84)
I1204 09:14:23.431666 10315 net.cpp:165] Memory required for data: 1746716
I1204 09:14:23.431694 10315 layer_factory.hpp:77] Creating layer loss_cls
I1204 09:14:23.431713 10315 net.cpp:106] Creating Layer loss_cls
I1204 09:14:23.431725 10315 net.cpp:454] loss_cls <- cls_score
I1204 09:14:23.431738 10315 net.cpp:454] loss_cls <- labels
I1204 09:14:23.431756 10315 net.cpp:411] loss_cls -> loss_cls
…
I1204 09:32:08.849444 10315 solver.cpp:229] Iteration 14980, loss = 0.0952193
I1204 09:32:08.849509 10315 solver.cpp:245]     Train net output #0: loss_bbox = 0.0670498 (* 1 = 0.0670498 loss)
I1204 09:32:08.849524 10315 solver.cpp:245]     Train net output #1: loss_cls = 0.0281696 (* 1 = 0.0281696 loss)
I1204 09:32:08.849536 10315 sgd_solver.cpp:106] Iteration 14980, lr = 0.001
I1204 09:32:11.792006 10315 net.cpp:49] Initializing net from parameters: 
name: "CaffeNet"
input: "data"
input: "rois"
state {
  phase: TEST
}
input_shape {
  dim: 1
  dim: 3
  dim: 227
  dim: 227
}
input_shape {
  dim: 1
  dim: 5
}
layer {
  name: "conv1"
  type: "Convolution"
  bottom: "data"
  top: "conv1"
  param {
    lr_mult: 0
    decay_mult: 0
  }
  param {
    lr_mult: 0
    decay_mult: 0
  }
  convolution_param {
    num_output: 96
    pad: 5
    kernel_size: 11
    stride: 4
  }
}
layer {
  name: "relu1"
  type: "ReLU"
  bottom: "conv1"
  top: "conv1"
}
layer {
  name: "pool1"
  type: "Pooling"
  bottom: "conv1"
  top: "pool1"
  pooling_param {
    pool: MAX
    kernel_size: 3
    stride: 2
    pad: 1
  }
}
layer {
  name: "norm1"
  type: "LRN"
  bottom: "pool1"
  top: "norm1"
  lrn_param {
    local_size: 5
    alpha: 0.0001
    beta: 0.75
  }
}
layer {
  name: "conv2"
  type: "Convolution"
  bottom: "norm1"
  top: "conv2"
  param {
    lr_mult: 1
    decay_mult: 1
  }
  param {
    lr_mult: 2
    decay_mult: 0
  }
  convolution_param {
    num_output: 256
    pad: 2
    kernel_size: 5
    group: 2
  }
}
layer {
  name: "relu2"
  type: "ReLU"
  bottom: "conv2"
  top: "conv2"
}
layer {
  name: "pool2"
  type: "Pooling"
  bottom: "conv2"
  top: "pool2"
  pooling_param {
    pool: MAX
    kernel_size: 3
    stride: 2
    pad: 1
  }
}
layer {
  name: "norm2"
  type: "LRN"
  bottom: "pool2"
  top: "norm2"
  lrn_param {
    local_size: 5
    alpha: 0.0001
    beta: 0.75
  }
}
layer {
  name: "conv3"
  type: "Convolution"
  bottom: "norm2"
  top: "conv3"
  param {
    lr_mult: 1
    decay_mult: 1
  }
  param {
    lr_mult: 2
    decay_mult: 0
  }
  convolution_param {
    num_output: 384
    pad: 1
    kernel_size: 3
  }
}
layer {
  name: "relu3"
  type: "ReLU"
  bottom: "conv3"
  top: "conv3"
}
layer {
  name: "conv4"
  type: "Convolution"
  bottom: "conv3"
  top: "conv4"
  param {
    lr_mult: 1
    decay_mult: 1
  }
  param {
    lr_mult: 2
    decay_mult: 0
  }
  convolution_param {
    num_output: 384
    pad: 1
    kernel_size: 3
    group: 2
  }
}
layer {
  name: "relu4"
  type: "ReLU"
  bottom: "conv4"
  top: "conv4"
}
layer {
  name: "conv5"
  type: "Convolution"
  bottom: "conv4"
  top: "conv5"
  param {
    lr_mult: 1
    decay_mult: 1
  }
  param {
    lr_mult: 2
    decay_mult: 0
  }
  convolution_param {
    num_output: 256
    pad: 1
    kernel_size: 3
    group: 2
  }
}
layer {
  name: "relu5"
  type: "ReLU"
  bottom: "conv5"
  top: "conv5"
}
layer {
  name: "roi_pool5"
  type: "ROIPooling"
  bottom: "conv5"
  bottom: "rois"
  top: "pool5"
  roi_pooling_param {
    pooled_h: 6
    pooled_w: 6
    spatial_scale: 0.0625
  }
}
layer {
  name: "fc6"
  type: "InnerProduct"
  bottom: "pool5"
  top: "fc6"
  param {
    lr_mult: 1
    decay_mult: 1
  }
  param {
    lr_mult: 2
    decay_mult: 0
  }
  inner_product_param {
    num_output: 4096
  }
}
layer {
  name: "relu6"
  type: "ReLU"
  bottom: "fc6"
  top: "fc6"
}
layer {
  name: "drop6"
  type: "Dropout"
  bottom: "fc6"
  top: "fc6"
  dropout_param {
    dropout_ratio: 0.5
  }
}
layer {
  name: "fc7"
  type: "InnerProduct"
  bottom: "fc6"
  top: "fc7"
  param {
    lr_mult: 1
    decay_mult: 1
  }
  param {
    lr_mult: 2
    decay_mult: 0
  }
  inner_product_param {
    num_output: 4096
  }
}
layer {
  name: "relu7"
  type: "ReLU"
  bottom: "fc7"
  top: "fc7"
}
layer {
  name: "drop7"
  type: "Dropout"
  bottom: "fc7"
  top: "fc7"
  dropout_param {
    dropout_ratio: 0.5
  }
}
layer {
  name: "cls_score"
  type: "InnerProduct"
  bottom: "fc7"
  top: "cls_score"
  param {
    lr_mult: 1
    decay_mult: 1
  }
  param {
    lr_mult: 2
    decay_mult: 0
  }
  inner_product_param {
    num_output: 21
    weight_filler {
      type: "gaussian"
      std: 0.01
    }
    bias_filler {
      type: "constant"
      value: 0
    }
  }
}
layer {
  name: "bbox_pred"
  type: "InnerProduct"
  bottom: "fc7"
  top: "bbox_pred"
  param {
    lr_mult: 1
    decay_mult: 1
  }
  param {
    lr_mult: 2
    decay_mult: 0
  }
  inner_product_param {
    num_output: 84
    weight_filler {
      type: "gaussian"
      std: 0.001
    }
    bias_filler {
      type: "constant"
      value: 0
    }
  }
}
layer {
  name: "cls_prob"
  type: "Softmax"
  bottom: "cls_score"
  top: "cls_prob"
}
I1204 09:32:11.792160 10315 net.cpp:413] Input 0 -> data
I1204 09:32:11.792249 10315 net.cpp:413] Input 1 -> rois
I1204 09:32:11.792295 10315 layer_factory.hpp:77] Creating layer conv1
I1204 09:32:11.792313 10315 net.cpp:106] Creating Layer conv1
I1204 09:32:11.792322 10315 net.cpp:454] conv1 <- data
I1204 09:32:11.792332 10315 net.cpp:411] conv1 -> conv1
I1204 09:32:11.792629 10315 net.cpp:150] Setting up conv1
I1204 09:32:11.792645 10315 net.cpp:157] Top shape: 1 96 57 57 (311904)
I1204 09:32:11.792652 10315 net.cpp:165] Memory required for data: 1247616
I1204 09:32:11.792668 10315 layer_factory.hpp:77] Creating layer relu1
I1204 09:32:11.792681 10315 net.cpp:106] Creating Layer relu1
I1204 09:32:11.792690 10315 net.cpp:454] relu1 <- conv1
I1204 09:32:11.792698 10315 net.cpp:397] relu1 -> conv1 (in-place)
I1204 09:32:11.792708 10315 net.cpp:150] Setting up relu1
I1204 09:32:11.792717 10315 net.cpp:157] Top shape: 1 96 57 57 (311904)
I1204 09:32:11.792724 10315 net.cpp:165] Memory required for data: 2495232
I1204 09:32:11.792732 10315 layer_factory.hpp:77] Creating layer pool1
I1204 09:32:11.792740 10315 net.cpp:106] Creating Layer pool1
I1204 09:32:11.792747 10315 net.cpp:454] pool1 <- conv1
I1204 09:32:11.792755 10315 net.cpp:411] pool1 -> pool1
I1204 09:32:11.792800 10315 net.cpp:150] Setting up pool1
I1204 09:32:11.792812 10315 net.cpp:157] Top shape: 1 96 29 29 (80736)
I1204 09:32:11.792819 10315 net.cpp:165] Memory required for data: 2818176
I1204 09:32:11.792826 10315 layer_factory.hpp:77] Creating layer norm1
I1204 09:32:11.792836 10315 net.cpp:106] Creating Layer norm1
I1204 09:32:11.792843 10315 net.cpp:454] norm1 <- pool1
I1204 09:32:11.792852 10315 net.cpp:411] norm1 -> norm1
I1204 09:32:11.792893 10315 net.cpp:150] Setting up norm1
I1204 09:32:11.792903 10315 net.cpp:157] Top shape: 1 96 29 29 (80736)
I1204 09:32:11.792910 10315 net.cpp:165] Memory required for data: 3141120
I1204 09:32:11.792917 10315 layer_factory.hpp:77] Creating layer conv2
I1204 09:32:11.792929 10315 net.cpp:106] Creating Layer conv2
I1204 09:32:11.792937 10315 net.cpp:454] conv2 <- norm1
I1204 09:32:11.792946 10315 net.cpp:411] conv2 -> conv2
I1204 09:32:11.794221 10315 net.cpp:150] Setting up conv2
I1204 09:32:11.794261 10315 net.cpp:157] Top shape: 1 256 29 29 (215296)
I1204 09:32:11.794270 10315 net.cpp:165] Memory required for data: 4002304
I1204 09:32:11.794284 10315 layer_factory.hpp:77] Creating layer relu2
I1204 09:32:11.794298 10315 net.cpp:106] Creating Layer relu2
I1204 09:32:11.794309 10315 net.cpp:454] relu2 <- conv2
I1204 09:32:11.794320 10315 net.cpp:397] relu2 -> conv2 (in-place)
I1204 09:32:11.794332 10315 net.cpp:150] Setting up relu2
I1204 09:32:11.794342 10315 net.cpp:157] Top shape: 1 256 29 29 (215296)
I1204 09:32:11.794348 10315 net.cpp:165] Memory required for data: 4863488
I1204 09:32:11.794354 10315 layer_factory.hpp:77] Creating layer pool2
I1204 09:32:11.794375 10315 net.cpp:106] Creating Layer pool2
I1204 09:32:11.794384 10315 net.cpp:454] pool2 <- conv2
I1204 09:32:11.794394 10315 net.cpp:411] pool2 -> pool2
I1204 09:32:11.794438 10315 net.cpp:150] Setting up pool2
I1204 09:32:11.794450 10315 net.cpp:157] Top shape: 1 256 15 15 (57600)
I1204 09:32:11.794457 10315 net.cpp:165] Memory required for data: 5093888
I1204 09:32:11.794466 10315 layer_factory.hpp:77] Creating layer norm2
I1204 09:32:11.794477 10315 net.cpp:106] Creating Layer norm2
I1204 09:32:11.794484 10315 net.cpp:454] norm2 <- pool2
I1204 09:32:11.794493 10315 net.cpp:411] norm2 -> norm2
I1204 09:32:11.794533 10315 net.cpp:150] Setting up norm2
I1204 09:32:11.794543 10315 net.cpp:157] Top shape: 1 256 15 15 (57600)
I1204 09:32:11.794550 10315 net.cpp:165] Memory required for data: 5324288
I1204 09:32:11.794558 10315 layer_factory.hpp:77] Creating layer conv3
I1204 09:32:11.794574 10315 net.cpp:106] Creating Layer conv3
I1204 09:32:11.794581 10315 net.cpp:454] conv3 <- norm2
I1204 09:32:11.794591 10315 net.cpp:411] conv3 -> conv3
I1204 09:32:11.796706 10315 net.cpp:150] Setting up conv3
I1204 09:32:11.796757 10315 net.cpp:157] Top shape: 1 384 15 15 (86400)
I1204 09:32:11.796764 10315 net.cpp:165] Memory required for data: 5669888
I1204 09:32:11.796783 10315 layer_factory.hpp:77] Creating layer relu3
I1204 09:32:11.796797 10315 net.cpp:106] Creating Layer relu3
I1204 09:32:11.796807 10315 net.cpp:454] relu3 <- conv3
I1204 09:32:11.796818 10315 net.cpp:397] relu3 -> conv3 (in-place)
I1204 09:32:11.796829 10315 net.cpp:150] Setting up relu3
I1204 09:32:11.796838 10315 net.cpp:157] Top shape: 1 384 15 15 (86400)
I1204 09:32:11.796849 10315 net.cpp:165] Memory required for data: 6015488
I1204 09:32:11.796855 10315 layer_factory.hpp:77] Creating layer conv4
I1204 09:32:11.796869 10315 net.cpp:106] Creating Layer conv4
I1204 09:32:11.796875 10315 net.cpp:454] conv4 <- conv3
I1204 09:32:11.796885 10315 net.cpp:411] conv4 -> conv4
I1204 09:32:11.798734 10315 net.cpp:150] Setting up conv4
I1204 09:32:11.798781 10315 net.cpp:157] Top shape: 1 384 15 15 (86400)
I1204 09:32:11.798789 10315 net.cpp:165] Memory required for data: 6361088
I1204 09:32:11.798802 10315 layer_factory.hpp:77] Creating layer relu4
I1204 09:32:11.798817 10315 net.cpp:106] Creating Layer relu4
I1204 09:32:11.798825 10315 net.cpp:454] relu4 <- conv4
I1204 09:32:11.798837 10315 net.cpp:397] relu4 -> conv4 (in-place)
I1204 09:32:11.798851 10315 net.cpp:150] Setting up relu4
I1204 09:32:11.798859 10315 net.cpp:157] Top shape: 1 384 15 15 (86400)
I1204 09:32:11.798866 10315 net.cpp:165] Memory required for data: 6706688
I1204 09:32:11.798872 10315 layer_factory.hpp:77] Creating layer conv5
I1204 09:32:11.798885 10315 net.cpp:106] Creating Layer conv5
I1204 09:32:11.798892 10315 net.cpp:454] conv5 <- conv4
I1204 09:32:11.798902 10315 net.cpp:411] conv5 -> conv5
I1204 09:32:11.800230 10315 net.cpp:150] Setting up conv5
I1204 09:32:11.800267 10315 net.cpp:157] Top shape: 1 256 15 15 (57600)
I1204 09:32:11.800276 10315 net.cpp:165] Memory required for data: 6937088
I1204 09:32:11.800294 10315 layer_factory.hpp:77] Creating layer relu5
I1204 09:32:11.800307 10315 net.cpp:106] Creating Layer relu5
I1204 09:32:11.800317 10315 net.cpp:454] relu5 <- conv5
I1204 09:32:11.800328 10315 net.cpp:397] relu5 -> conv5 (in-place)
I1204 09:32:11.800339 10315 net.cpp:150] Setting up relu5
I1204 09:32:11.800348 10315 net.cpp:157] Top shape: 1 256 15 15 (57600)
I1204 09:32:11.800355 10315 net.cpp:165] Memory required for data: 7167488
I1204 09:32:11.800362 10315 layer_factory.hpp:77] Creating layer roi_pool5
I1204 09:32:11.800372 10315 net.cpp:106] Creating Layer roi_pool5
I1204 09:32:11.800379 10315 net.cpp:454] roi_pool5 <- conv5
I1204 09:32:11.800387 10315 net.cpp:454] roi_pool5 <- rois
I1204 09:32:11.800396 10315 net.cpp:411] roi_pool5 -> pool5
I1204 09:32:11.800408 10315 roi_pooling_layer.cpp:30] Spatial scale: 0.0625
I1204 09:32:11.800465 10315 net.cpp:150] Setting up roi_pool5
I1204 09:32:11.800477 10315 net.cpp:157] Top shape: 1 256 6 6 (9216)
I1204 09:32:11.800493 10315 net.cpp:165] Memory required for data: 7204352
I1204 09:32:11.800500 10315 layer_factory.hpp:77] Creating layer fc6
I1204 09:32:11.800511 10315 net.cpp:106] Creating Layer fc6
I1204 09:32:11.800519 10315 net.cpp:454] fc6 <- pool5
I1204 09:32:11.800529 10315 net.cpp:411] fc6 -> fc6
I1204 09:32:11.866273 10315 net.cpp:150] Setting up fc6
I1204 09:32:11.866325 10315 net.cpp:157] Top shape: 1 4096 (4096)
I1204 09:32:11.866333 10315 net.cpp:165] Memory required for data: 7220736
I1204 09:32:11.866422 10315 layer_factory.hpp:77] Creating layer relu6
I1204 09:32:11.866444 10315 net.cpp:106] Creating Layer relu6
I1204 09:32:11.866456 10315 net.cpp:454] relu6 <- fc6
I1204 09:32:11.866466 10315 net.cpp:397] relu6 -> fc6 (in-place)
I1204 09:32:11.866478 10315 net.cpp:150] Setting up relu6
I1204 09:32:11.866487 10315 net.cpp:157] Top shape: 1 4096 (4096)
I1204 09:32:11.866494 10315 net.cpp:165] Memory required for data: 7237120
I1204 09:32:11.866502 10315 layer_factory.hpp:77] Creating layer drop6
I1204 09:32:11.866513 10315 net.cpp:106] Creating Layer drop6
I1204 09:32:11.866519 10315 net.cpp:454] drop6 <- fc6
I1204 09:32:11.866528 10315 net.cpp:397] drop6 -> fc6 (in-place)
I1204 09:32:11.866562 10315 net.cpp:150] Setting up drop6
I1204 09:32:11.866572 10315 net.cpp:157] Top shape: 1 4096 (4096)
I1204 09:32:11.866580 10315 net.cpp:165] Memory required for data: 7253504
I1204 09:32:11.866587 10315 layer_factory.hpp:77] Creating layer fc7
I1204 09:32:11.866600 10315 net.cpp:106] Creating Layer fc7
I1204 09:32:11.866606 10315 net.cpp:454] fc7 <- fc6
I1204 09:32:11.866616 10315 net.cpp:411] fc7 -> fc7
I1204 09:32:11.898479 10315 net.cpp:150] Setting up fc7
I1204 09:32:11.898531 10315 net.cpp:157] Top shape: 1 4096 (4096)
I1204 09:32:11.898542 10315 net.cpp:165] Memory required for data: 7269888
I1204 09:32:11.898561 10315 layer_factory.hpp:77] Creating layer relu7
I1204 09:32:11.898576 10315 net.cpp:106] Creating Layer relu7
I1204 09:32:11.898587 10315 net.cpp:454] relu7 <- fc7
I1204 09:32:11.898599 10315 net.cpp:397] relu7 -> fc7 (in-place)
I1204 09:32:11.898613 10315 net.cpp:150] Setting up relu7
I1204 09:32:11.898623 10315 net.cpp:157] Top shape: 1 4096 (4096)
I1204 09:32:11.898630 10315 net.cpp:165] Memory required for data: 7286272
I1204 09:32:11.898638 10315 layer_factory.hpp:77] Creating layer drop7
I1204 09:32:11.898648 10315 net.cpp:106] Creating Layer drop7
I1204 09:32:11.898656 10315 net.cpp:454] drop7 <- fc7
I1204 09:32:11.898679 10315 net.cpp:397] drop7 -> fc7 (in-place)
I1204 09:32:11.898733 10315 net.cpp:150] Setting up drop7
I1204 09:32:11.898746 10315 net.cpp:157] Top shape: 1 4096 (4096)
I1204 09:32:11.898753 10315 net.cpp:165] Memory required for data: 7302656
I1204 09:32:11.898761 10315 layer_factory.hpp:77] Creating layer fc7_drop7_0_split
I1204 09:32:11.898771 10315 net.cpp:106] Creating Layer fc7_drop7_0_split
I1204 09:32:11.898778 10315 net.cpp:454] fc7_drop7_0_split <- fc7
I1204 09:32:11.898787 10315 net.cpp:411] fc7_drop7_0_split -> fc7_drop7_0_split_0
I1204 09:32:11.898798 10315 net.cpp:411] fc7_drop7_0_split -> fc7_drop7_0_split_1
I1204 09:32:11.898857 10315 net.cpp:150] Setting up fc7_drop7_0_split
I1204 09:32:11.898869 10315 net.cpp:157] Top shape: 1 4096 (4096)
I1204 09:32:11.898876 10315 net.cpp:157] Top shape: 1 4096 (4096)
I1204 09:32:11.898883 10315 net.cpp:165] Memory required for data: 7335424
I1204 09:32:11.898890 10315 layer_factory.hpp:77] Creating layer cls_score
I1204 09:32:11.898903 10315 net.cpp:106] Creating Layer cls_score
I1204 09:32:11.898910 10315 net.cpp:454] cls_score <- fc7_drop7_0_split_0
I1204 09:32:11.898921 10315 net.cpp:411] cls_score -> cls_score
I1204 09:32:11.901286 10315 net.cpp:150] Setting up cls_score
I1204 09:32:11.901304 10315 net.cpp:157] Top shape: 1 21 (21)
I1204 09:32:11.901312 10315 net.cpp:165] Memory required for data: 7335508
I1204 09:32:11.901324 10315 layer_factory.hpp:77] Creating layer bbox_pred
I1204 09:32:11.901336 10315 net.cpp:106] Creating Layer bbox_pred
I1204 09:32:11.901345 10315 net.cpp:454] bbox_pred <- fc7_drop7_0_split_1
I1204 09:32:11.901365 10315 net.cpp:411] bbox_pred -> bbox_pred
I1204 09:32:11.911252 10315 net.cpp:150] Setting up bbox_pred
I1204 09:32:11.911291 10315 net.cpp:157] Top shape: 1 84 (84)
I1204 09:32:11.911300 10315 net.cpp:165] Memory required for data: 7335844
I1204 09:32:11.911321 10315 layer_factory.hpp:77] Creating layer cls_prob
I1204 09:32:11.911339 10315 net.cpp:106] Creating Layer cls_prob
I1204 09:32:11.911348 10315 net.cpp:454] cls_prob <- cls_score
I1204 09:32:11.911358 10315 net.cpp:411] cls_prob -> cls_prob
I1204 09:32:11.911448 10315 net.cpp:150] Setting up cls_prob
I1204 09:32:11.911461 10315 net.cpp:157] Top shape: 1 21 (21)
I1204 09:32:11.911468 10315 net.cpp:165] Memory required for data: 7335928
I1204 09:32:11.911475 10315 net.cpp:228] cls_prob does not need backward computation.
I1204 09:32:11.911484 10315 net.cpp:228] bbox_pred does not need backward computation.
I1204 09:32:11.911490 10315 net.cpp:228] cls_score does not need backward computation.
I1204 09:32:11.911499 10315 net.cpp:228] fc7_drop7_0_split does not need backward computation.
…
